…
    },
    {
      "cell_type": "code",
      "source": [
        "embed_model = model.base_model\n",
        "embed_model.eval()"
      ],
      "metadata": {
        "colab": {
          "base_uri": "https://localhost:8080/"
        },
        "id": "5dsc4EhmOi_-",
        "outputId": "6d0fbce5-35a0-40e5-934a-3f30b7a59d1c"
      },
      "execution_count": null,
      "outputs": [
        {
          "output_type": "execute_result",
          "data": {
            "text/plain": [
              "BertModel(\n",
              "  (embeddings): BertEmbeddings(\n",
              "    (word_embeddings): Embedding(30522, 768, padding_idx=0)\n",
              "    (position_embeddings): Embedding(512, 768)\n",
              "    (token_type_embeddings): Embedding(2, 768)\n",
              "    (LayerNorm): LayerNorm((768,), eps=1e-12, elementwise_affine=True)\n",
              "    (dropout): Dropout(p=0.1, inplace=False)\n",
              "  )\n",
              "  (encoder): BertEncoder(\n",
              "    (layer): ModuleList(\n",
              "      (0-11): 12 x BertLayer(\n",
              "        (attention): BertAttention(\n",
              "          (self): BertSdpaSelfAttention(\n",
              "            (query): Linear(in_features=768, out_features=768, bias=True)\n",
              "            (key): Linear(in_features=768, out_features=768, bias=True)\n",
              "            (value): Linear(in_features=768, out_features=768, bias=True)\n",
              "            (dropout): Dropout(p=0.1, inplace=False)\n",
              "          )\n",
              "          (output): BertSelfOutput(\n",
              "            (dense): Linear(in_features=768, out_features=768, bias=True)\n",
              "            (LayerNorm): LayerNorm((768,), eps=1e-12, elementwise_affine=True)\n",
              "            (dropout): Dropout(p=0.1, inplace=False)\n",
              "          )\n",
              "        )\n",
              "        (intermediate): BertIntermediate(\n",
              "          (dense): Linear(in_features=768, out_features=3072, bias=True)\n",
              "          (intermediate_act_fn): GELUActivation()\n",
              "        )\n",
              "        (output): BertOutput(\n",
              "          (dense): Linear(in_features=3072, out_features=768, bias=True)\n",
              "          (LayerNorm): LayerNorm((768,), eps=1e-12, elementwise_affine=True)\n",
              "          (dropout): Dropout(p=0.1, inplace=False)\n",
              "        )\n",
              "      )\n",
              "    )\n",
              "  )\n",
              "  (pooler): BertPooler(\n",
              "    (dense): Linear(in_features=768, out_features=768, bias=True)\n",
              "    (activation): Tanh()\n",
              "  )\n",
              ")"
            ]
          },
          "metadata": {},
          "execution_count": 47
        }
      ]
    },
    {
      "cell_type": "code",
      "source": [
        "# Cell 10: Extract raw embeddings using concatenate_datasets\n",
        "\n",
        "from datasets import concatenate_datasets\n",
…
